…
[KDownloading https://ultralytics.com/assets/Arial.ttf to '/root/.config/Ultralytics/Arial.ttf': 77% ━━━━━━━━━─── 584.0/755.1KB 4.5MB/s 0.2s<0.0s
[KDownloading https://ultralytics.com/assets/Arial.ttf to '/root/.config/Ultralytics/Arial.ttf': 100% ━━━━━━━━━━━━ 755.1KB 3.4MB/s 0.2s
[KDownloading https://ultralytics.com/assets/Arial.ttf to '/root/.config/Ultralytics/Arial.ttf': 100% ━━━━━━━━━━━━ 755.1KB 3.4MB/s 0.2s
101.7s	180	
101.7s	181	                   from  n    params  module                                       arguments                     
101.7s	182	  0                  -1  1       464  ultralytics.nn.modules.conv.Conv             [3, 16, 3, 2]                 
101.7s	183	  1                  -1  1      4672  ultralytics.nn.modules.conv.Conv             [16, 32, 3, 2]                
101.7s	184	  2                  -1  1      7360  ultralytics.nn.modules.block.C2f             [32, 32, 1, True]             
101.7s	185	  3                  -1  1     18560  ultralytics.nn.modules.conv.Conv             [32, 64, 3, 2]                
101.7s	186	  4                  -1  2     49664  ultralytics.nn.modules.block.C2f             [64, 64, 2, True]             
101.7s	187	  5                  -1  1     73984  ultralytics.nn.modules.conv.Conv             [64, 128, 3, 2]               
101.7s	188	  6                  -1  2    197632  ultralytics.nn.modules.block.C2f             [128, 128, 2, True]           
101.7s	189	  7                  -1  1    295424  ultralytics.nn.modules.conv.Conv             [128, 256, 3, 2]              
101.7s	190	  8                  -1  1    460288  ultralytics.nn.modules.block.C2f             [256, 256, 1, True]           
101.7s	191	  9                  -1  1    164608  ultralytics.nn.modules.block.SPPF            [256, 256, 5]                 
101.7s	192	 10                  -1  1         0  torch.nn.modules.upsampling.Upsample         [None, 2, 'nearest']          
101.7s	193	 11             [-1, 6]  1         0  ultralytics.nn.modules.conv.Concat           [1]                           
101.7s	194	 12                  -1  1    148224  ultralytics.nn.modules.block.C2f             [384, 128, 1]                 
101.7s	195	 13                  -1  1         0  torch.nn.modules.upsampling.Upsample         [None, 2, 'nearest']          
101.7s	196	 14             [-1, 4]  1         0  ultralytics.nn.modules.conv.Concat           [1]                           
101.7s	197	 15                  -1  1     37248  ultralytics.nn.modules.block.C2f             [192, 64, 1]                  
101.7s	198	 16                  -1  1     36992  ultralytics.nn.modules.conv.Conv             [64, 64, 3, 2]                
101.7s	199	 17            [-1, 12]  1         0  ultralytics.nn.modules.conv.Concat           [1]                           
101.7s	200	 18                  -1  1    123648  ultralytics.nn.modules.block.C2f             [192, 128, 1]                 
101.7s	201	 19                  -1  1    147712  ultralytics.nn.modules.conv.Conv             [128, 128, 3, 2]              
101.7s	202	 20             [-1, 9]  1         0  ultralytics.nn.modules.conv.Concat           [1]                           
101.7s	203	 21                  -1  1    493056  ultralytics.nn.modules.block.C2f             [384, 256, 1]                 
101.8s	204	 22        [15, 18, 21]  1    823735  ultralytics.nn.modules.head.Pose             [1, [4, 3], [64, 128, 256]]   
102.1s	205	YOLOv8n-pose summary: 144 layers, 3,083,271 parameters, 3,083,255 gradients, 8.4 GFLOPs
102.1s	206	
102.1s	207	Transferred 397/397 items from pretrained weights
102.3s	208	Freezing layer 'model.22.dfl.conv.weight'
104.0s	209	[34m[1mtrain: [0mFast image access ✅ (ping: 0.0±0.0 ms, read: 33.8±17.4 MB/s, size: 234.5 KB)
113.7s	210	
[K[34m[1mtrain: [0mScanning /kaggle/input/mergeblend-new2/prep_merged_dataset_blend/labels/train... 11 images, 0 backgrounds, 11 corrupt: 0% ──────────── 11/3430 25.8it/s 0.1s<2:12
…
